…
    'train_size': 2,
    'validate_every_n_epochs': 25,
    'x_name': 'X',
    'y_name': 'Y'}


2025-04-02 18:34:29,013 | INFO | Data generation, train set


2025-04-02 18:34:29,013 | INFO | Data generation, cv set


2025-04-02 18:34:29,019 | INFO | Data generation, test set


2025-04-02 18:34:29,020 | INFO | Data persistance (saving dataloaders)


2025-04-02 18:34:29,027 | INFO | Data (re-)loading


2025-04-02 18:34:32,459 | INFO | Model architecture


2025-04-02 18:34:32,459 | INFO | SetToSequence(
  (elem_encoder): ElementEncoderLinear(
    (first_layer): ElementEncoderFirstLayer(
      (first_layer): Linear(in_features=2, out_features=256, bias=True)
    )
    (second_plus_layers): ModuleList(
      (0): Sequential(
        (0): Linear(in_features=256, out_features=256, bias=True)
        (1): ReLU()
      )
    )
  )
  (set_embedding): CustomSetEncoder(
    (elem_resizer): SAB(
      (mab): MAB(
        (fc_q): Linear(in_features=256, out_features=256, bias=True)
        (fc_k): Linear(in_features=256, out_features=256, bias=True)
        (fc_v): Linear(in_features=256, out_features=256, bias=True)
        (fc_o): Linear(in_features=256, out_features=256, bias=True)
      )
    )
    (first_pool): PMA(
      (mab): MAB(
        (fc_q): Linear(in_features=256, out_features=256, bias=True)
        (fc_k): Linear(in_features=256, out_features=256, bias=True)
        (fc_v): Linear(in_features=256, out_features=256, bias=True)
        (fc_o): Linear(in_features=256, out_features=256, bias=True)
      )
    )
    (main_attention_blocks): ModuleList()
  )
  (decoder): FutureHistoryPointerDecoder(
    (element_resizer): Linear(in_features=256, out_features=512, bias=True)
    (set_resizer1): Linear(in_features=128, out_features=512, bias=True)
    (set_resizer2): Linear(in_features=128, out_features=512, bias=True)
    (decoder): LSTM(512, 512, batch_first=True)
    (linears): ModuleList(
      (0): Linear(in_features=512, out_features=512, bias=False)
      (1): Linear(in_features=512, out_features=512, bias=False)
      (2): Linear(in_features=512, out_features=1, bias=False)
    )
    (future): Sequential(
      (0): Linear(in_features=1024, out_features=512, bias=False)
      (1): ReLU()
      (2): Dropout(p=0.1, inplace=False)
      (3): Linear(in_features=512, out_features=256, bias=False)
      (4): ReLU()
      (5): Dropout(p=0.1, inplace=False)
    )
    (w3): Linear(in_features=256, out_features=2, bias=False)
    (hist_left1): Sequential(
      (0): Linear(in_features=1024, out_features=512, bias=False)
      (1): ReLU()
      (2): Dropout(p=0.1, inplace=False)
      (3): Linear(in_features=512, out_features=256, bias=False)
      (4): ReLU()
      (5): Dropout(p=0.1, inplace=False)
    )
    (hist_left2): Sequential(
      (0): Linear(in_features=1024, out_features=512, bias=False)
      (1): ReLU()
      (2): Dropout(p=0.1, inplace=False)
      (3): Linear(in_features=512, out_features=256, bias=False)
      (4): ReLU()
      (5): Dropout(p=0.1, inplace=False)
    )
    (wleft1): Linear(in_features=256, out_features=2, bias=False)
    (wleft2): Linear(in_features=256, out_features=2, bias=False)
    (pw_k): Linear(in_features=1032, out_features=512, bias=False)
    (pw_e): Linear(in_features=256, out_features=1, bias=False)
  )
)


2025-04-02 18:34:32,467 | INFO | The model has 5,979,136 trainable parameters


2025-04-02 18:34:32,840 | INFO | Permutation invariance of output check (2-dim elems):


2025-04-02 18:34:32,840 | INFO | tensor([[ 7,  2, 13,  3,  4, 14, 10,  6, 19,  8,  5,  1,  9,  0, 11, 16, 15, 12,
         17, 18],
        [ 8, 15, 14, 18, 19,  4, 10, 16, 13,  6,  2,  7,  5, 17,  9, 12,  0,  3,
…
